logdir/birnn_ode_decay/final_model.pt (torch, 19529 bytes, 49 tensors)

embed_dp.weight f4 [8, 3]
0.0 0.0 0.0 -0.21029055 -1.6231447 -0.570746 0.29223707 -0.63584405
0.8920656 1.34507 2.222652 -0.3645936 1.7193719 -2.400304 -0.075097546 2.026772
1.3284584 0.4278268 -1.1619766 1.021735 -1.2368854 0.9047165 0.47011417 -0.7887835
00000000: 0000 0000 0000 0000 0000 0000 6856 57be
00000010: 35c3 cfbf 691c 12bf 19a0 953e adc6 22bf
00000020: 695e 643f 412b ac3f ee3f 0e40 03ac babe
00000030: 6114 dc3f 959e 19c0 becc 99bd a2b6 0140
00000040: ed0a aa3f 1d0c db3e a6bb 94bf 36c8 823f
00000050: 4352 9ebf 809b 673f ceb2 f03e b7ed 49bf

embed_cp.weight f4 [20, 4]
0.0 0.0 0.0 0.0 1.1382451 -0.12472242 -1.1503547 0.5621709
-0.10364291 -1.3869784 -1.3037714 0.00863367 -0.3697206 0.10276297 0.12525886 0.19970068
-0.41762602 -1.312103 0.24435161 -0.20885877 0.343383 0.98661244 0.20076256 0.33773592
-1.5652367 -0.46044147 0.099850774 -0.36326504 -1.1203507 -0.8016305 1.2663014 0.62952006
-1.0536022 0.29100102 -1.20914 0.02487992 -0.9492327 0.9204256 0.34334308 -1.1323075
-1.4074308 -0.48013747 -0.52811754 -1.5130281 0.10143792 -0.21793406 -0.34287626 -0.21095169
-0.41445467 -2.2192242 -0.19194135 -0.09496105 -0.19920672 0.24529068 -0.20577897 -0.41704035
0.8250019 0.30714563 -0.4036125 0.21200009 -0.8383784 0.14367487 -0.0121255 2.4561584
-1.0623024 -0.0330469 0.0073907617 0.15186596 1.259664 -0.28795198 0.17984118 -0.79115266
-0.8605874 0.2106057 0.7685494 0.14599362 0.22402304 -0.9946463 1.1562971 -0.91051066
00000000: 0000 0000 0000 0000 0000 0000 0000 0000
00000010: 04b2 913f 786e ffbd d33e 93bf 6fea 0f3f
00000020: bc42 d4bd 8288 b1bf fbe1 a6bf 3d74 0d3c
00000030: 054c bdbe 6475 d23d dc43 003e 567e 4c3e
00000040: 14d3 d5be fef2 a7bf 4f37 7a3e 13df 55be
00000050: e6cf af3e a292 7c3f b394 4d3e b9eb ac3e
00000060: ad59 c8bf fcbe ebbe 907e cc3d e0fd b9be
00000070: a767 8fbf a837 4dbf 2a16 a23f 3a28 213f
00000080: 70dc 86bf 16fe 943e 19c5 9abf f9d0 cb3c
00000090: ea00 73bf 03a1 6b3f aaca af3e 74ef 90bf
000000a0: b126 b4bf 94d4 f5be b632 07bf e8aa c1bf
000000b0: afbe cf3d 1b2a 5fbe 7a8d afbe b803 58be
000000c0: 6733 d4be c507 0ec0 468c 44be f07a c2bd
000000d0: d9fc 4bbe 7b2d 7b3e b9b7 52be 5086 d5be
000000e0: 5333 533f 3142 9d3e 4ca6 cebe 8d16 593e
000000f0: f89f 56bf 811f 133e 08aa 46bc b331 1d40
00000100: 86f9 87bf 305c 07bd 342e f23b c082 1b3e
00000110: ac3c a13f 716e 93be 4928 383e fb88 4abf
00000120: 754f 5cbf 05a9 573e a7bf 443f 5a7f 153e
00000130: 4c66 653e 24a1 7ebf 8b01 943f 3a17 69bf

gru_dp_fw.decays f4 [3]
0.0 0.0 0.0
00000000: 0000 0000 0000 0000 0000 0000

gru_dp_fw.gru_cell.weight_ih f4 [9, 3]
-0.372904 0.5533806 0.19152689 0.08088589 -0.25758106 0.42230994 -0.4165119 -0.3142041
-0.5626464 0.43208206 0.15805829 -0.025858462 -0.120992094 -0.05172974 0.44454253 0.1573028
0.36119068 -0.23143446 -0.5138366 0.0052508116 -0.010481238 -0.26589835 0.102883756 -0.5288709
0.18472445 0.13868523 0.16884077
00000000: 46ed bebe 5aaa 0d3f a01f 443e 80a7 a53d
00000010: aae1 83be 0239 d83e 0c41 d5be 5cdf a0be
00000020: 9809 10bf dc39 dd3e 08da 213e 20d5 d3bc
00000030: b4ca f7bd 90e2 53bd 149b e33e fc13 213e
00000040: fced b83e 28fd 6cbe cc8a 03bf 000f ac3b
00000050: 80b9 2bbc d423 88be b8b4 d23d 1564 07bf
00000060: 6828 3d3e 8003 0e3e 98e4 2c3e

gru_dp_fw.gru_cell.weight_hh f4 [9, 3]
0.36087316 -0.3611791 -0.31111005 0.21264642 -0.111469954 0.02551788 0.045203507 -0.23609981
-0.20354939 -0.0793837 -0.55132353 -0.30575123 0.37153435 0.42410886 0.30308056 -0.3780033
0.3738253 0.40232778 0.068680644 -0.53869015 0.07336897 -0.20244294 -0.09840533 -0.13977623
-0.26722133 -0.25065026 -0.038296282
00000000: 5ec4 b83e 78ec b8be d149 9fbe fcbf 593e
00000010: 5c4a e4bd e00a d13c 5027 393d 26c4 71be
00000020: 406f 50be ec93 a2bd 8a23 0dbf 6d8b 9cbe
00000030: c039 be3e cc24 d93e 602d 9b3e a689 c1be
00000040: 0866 bf3e e8fd cd3e 70a8 8c3d 99e7 09bf
00000050: 7842 963d 344d 4fbe bc88 c9bd 8021 0fbe
00000060: 3cd1 88be 3b55 80be 90dc 1cbd

gru_dp_fw.gru_cell.bias_ih f4 [9]
0.4522487 0.20726866 0.14327234 -0.07542491 0.081674755 -0.4885764 0.07232362 0.39678603
0.50189805
00000000: 248d e73e 3c3e 543e fcb5 123e 6078 9abd
00000010: 1845 a73d b026 fabe 681e 943d 8a27 cb3e
00000020: 647c 003f

gru_dp_fw.gru_cell.bias_hh f4 [9]
-0.5157044 0.1979217 -0.1430941 0.53978884 -0.28803018 -0.4044137 0.30070162 0.41625094
0.15018159
00000000: 3405 04bf fcab 4a3e 4287 12be 9a2f 0a3f
00000010: b178 93be 500f cfbe 90f5 993e d81e d53e
00000020: 34c9 193e

gru_dp_fw.ode_net.odeblock.odefunc.fc1.weight f4 [3, 3]
-0.1456449 -0.23700795 0.44683695 0.1906023 -0.26859137 -0.45586276 0.54004514 0.2660312
0.09141022
00000000: f023 15be 36b2 72be d0c7 e43e 402d 433e
00000010: cf84 89be d866 e9be 6640 0a3f 3e35 883e
00000020: 4835 bb3d

gru_dp_fw.ode_net.odeblock.odefunc.fc1.bias f4 [3]
0.047564983 0.13649875 -0.56046826
00000000: 80d3 423d 54c6 0b3e d97a 0fbf

gru_dp_fw.ode_net.odeblock.odefunc.fc2.weight f4 [3, 3]
0.109079 0.073448956 0.45455003 -0.314932 -0.5082318 0.1643278 -0.50717163 -0.46709707
0.28622216
00000000: d064 df3d 686c 963d c8ba e83e c43e a1be
00000010: 7b1b 02bf 8c45 283e 00d6 01bf 5927 efbe
00000020: b68b 923e

gru_dp_fw.ode_net.odeblock.odefunc.fc2.bias f4 [3]
-0.42462742 0.5484338 -0.06443232
00000000: c468 d9be 2866 0c3f 18f5 83bd

gru_dp_fw.ode_net.odeblock.odefunc.fc3.weight f4 [3, 3]
0.32291788 -0.089493185 0.40454543 0.43520105 0.20333117 -0.382286 0.055163324 0.146029
0.24007869
00000000: 7e55 a53e 3448 b7bd 9420 cf3e acd2 de3e
00000010: 0c36 503e feba c3be f0f2 613d a088 153e
00000020: 30d7 753e

gru_dp_fw.ode_net.odeblock.odefunc.fc3.bias f4 [3]
0.5486952 0.29054326 -0.37020224
00000000: 4a77 0c3f 16c2 943e 268b bdbe

gru_cp_fw.decays f4 [4]
0.0 0.0 0.0 0.0
00000000: 0000 0000 0000 0000 0000 0000 0000 0000

gru_cp_fw.gru_cell.weight_ih f4 [12, 4]
0.2791571 -0.17058527 0.2674318 -0.1964125 -0.14685822 -0.20536941 -0.26606566 0.39127243
-0.48103517 -0.085558 0.43701088 -0.48072177 0.19269782 0.4654178 -0.2693873 -0.10644281
-0.12592936 0.16511852 -0.11132121 0.11111957 0.13569087 0.0009799004 -0.4736538 -0.43618518
0.099169195 -0.42432183 0.2872678 0.22735238 -0.14623582 0.00095903873 -0.0054010153 -0.24729979
0.1831556 0.15223348 0.075781584 0.4928637 0.3117273 -0.46196622 0.099957585 0.017727554
0.29753268 -0.11621171 0.34972537 -0.25601518 -0.0063283443 -0.48525596 -0.14173466 0.3147908
00000000: aeed 8e3e e8ad 2ebe d2ec 883e 5c20 49be
00000010: 0062 16be 5c4c 52be c239 88be dc54 c83e
00000020: 3e4a f6be 0839 afbd e4bf df3e 2a21 f6be
00000030: 9452 453e 3e4b ee3e 22ed 89be b0fe d9bd
00000040: a0f3 00be d414 293e 60fc e3bd a892 e33d
00000050: 8cf2 0a3e 0070 803a c082 f2be aa53 dfbe
00000060: 3819 cb3d b640 d9be c414 933e 10cf 683e
00000070: d8be 15be 0068 7b3a 00fb b0bb 283c 7dbe
00000080: 248d 3b3e 18e3 1b3e 6033 9b3d a258 fc3e
00000090: b89a 9f3e d686 ecbe 90b6 cc3d 6039 913c
000000a0: 3456 983e 6800 eebd 340f b33e 6c14 83be
000000b0: 005e cfbb 7873 f8be e422 11be 422c a13e

gru_cp_fw.gru_cell.weight_hh f4 [12, 4]
-0.49359548 0.08520126 0.4588712 -0.10810846 0.36833304 -0.40772414 -0.28839236 0.22463572
0.3677842 -0.24405658 -0.46215934 -0.39953446 -0.28093934 -0.028039634 -0.050700605 0.06460512
0.3086691 -0.45616984 -0.053175688 -0.2605397 0.29490668 0.30048323 -0.37956733 -0.1354459
0.4470312 -0.30580634 0.0540573 -0.23911351 -0.008307934 -0.49878997 0.32536995 -4.8935413e-05
-0.13029927 -0.033822536 0.08745867 0.4339043 0.25817215 0.27845216 -0.48097187 -0.095519185
0.28345954 0.43226188 -0.11713743 -0.102069795 0.3468181 0.35938525 -0.36558753 -0.42846823
00000000: 8cb8 fcbe 007e ae3d 2af1 ea3e f867 ddbd
00000010: 2696 bc3e 38c1 d0be 2aa8 93be e806 663e
00000020: 364e bc3e f8e9 79be 26a0 ecbe c88f ccbe
00000030: 48d7 8fbe 60b3 e5bc 70ab 4fbd b04f 843d
00000040: e009 9e3e 188f e9be c0ce 59bd 7665 85be
00000050: 02fe 963e f0d8 993e a656 c2be 54b2 0abe
00000060: 46e1 e43e a692 9cbe 306b 5d3d 2cda 74be
00000070: 001e 08bc 6661 ffbe e496 a63e 0040 4db8
00000080: 2c6d 05be 8089 0abd 881d b33d b428 de3e
00000090: 242f 843e 4891 8e3e f241 f6be 909f c3bd
000000a0: 9c21 913e 6e51 dd3e c0e5 efbd f809 d1bd
000000b0: 2492 b13e 5801 b83e 4a2e bbbe 3060 dbbe

gru_cp_fw.gru_cell.bias_ih f4 [12]
-0.38576728 0.49260944 -0.28903276 0.21545374 -0.001753509 0.442959 -0.19810212 0.4614207
-0.02557987 0.10517156 0.13345289 -0.39578104
00000000: 4a83 c5be 4e37 fc3e 1afc 93be e89f 5c3e
00000010: 00d6 e5ba 86cb e23e 48db 4abe 563f ec3e
00000020: e08c d1bc 3064 d73d e0a7 083e d0a3 cabe

gru_cp_fw.gru_cell.bias_hh f4 [12]
0.16482002 0.41321433 0.43865526 -0.29595315 0.26042497 -0.21671408 0.13880974 0.08104485
0.14653057 0.40505004 0.47591424 -0.25963044
00000000: 94c6 283e d490 d33e 6c97 e03e 2c87 97be
00000010: 6c56 853e 4cea 5dbe 2424 0e3e d8fa a53d
00000020: 1c0c 163e b862 cf3e 08ab f33e 48ee 84be

gru_cp_fw.ode_net.odeblock.odefunc.fc1.weight f4 [4, 4]
0.0389778 0.476403 0.38016152 -0.49700737 0.3939637 0.39248782 0.4931237 0.23778611
-0.09734374 0.25795287 -0.30347162 0.49814868 -0.37923956 0.34782934 0.025726378 -0.10491419
00000000: 30a7 1f3d 18eb f33e 88a4 c23e c077 febe
00000010: 9cb5 c93e 2af4 c83e b67a fc3e 347e 733e
00000020: 285c c7bd 6612 843e a260 9bbe 580d ff3e
00000030: b02b c2be b016 b23e 20c0 d23c 40dd d6bd

gru_cp_fw.ode_net.odeblock.odefunc.fc1.bias f4 [4]
0.47178358 0.005588293 -0.2690155 0.4995982
00000000: 9e8d f13e 001e b73b 66bc 89be 56cb ff3e

gru_cp_fw.ode_net.odeblock.odefunc.fc2.weight f4 [4, 4]
0.36752743 -0.05119574 -0.4249769 0.045513153 -0.02757603 -0.10926026 -0.0058366656 0.30139327
0.30496335 -0.44008285 0.074881434 0.25088495 -0.4371572 -0.041921616 -0.27366328 0.4161681
00000000: 8e2c bc3e a0b2 51bd 9296 d9be 006c 3a3d
00000010: 20e7 e1bc d8c3 dfbd 8041 bfbb 3850 9a3e
00000020: 2824 9c3e 8a52 e1be 705b 993d fe73 803e
00000030: 12d3 dfbe 00b6 2bbd 981d 8cbe fc13 d53e

gru_cp_fw.ode_net.odeblock.odefunc.fc2.bias f4 [4]
-0.23867708 0.31404734 0.07649952 0.26185024
00000000: c467 74be d0ca a03e c8ab 9c3d 3c11 863e

gru_cp_fw.ode_net.odeblock.odefunc.fc3.weight f4 [4, 4]
0.42970878 0.31587332 -0.06751615 0.43289566 0.041042507 -0.21172786 -0.26756257 0.25916874
-0.25518137 0.21097457 0.41963238 -0.32631004 -0.12651461 -0.49499637 -0.010848999 -0.24683195
00000000: ca02 dc3e 26ba a13e e845 8abd 80a4 dd3e
00000010: 301c 283d 30cf 58be f6fd 88be c4b1 843e
00000020: 22a7 82be b809 583e 0eda d63e 1c12 a7be
00000030: 0c8d 01be 2a70 fdbe 00c0 31bc 84c1 7cbe

gru_cp_fw.ode_net.odeblock.odefunc.fc3.bias f4 [4]
0.34045887 -0.47011948 -0.44583374 -0.31693047
00000000: a050 ae3e 80b3 f0be 5244 e4be b644 a2be

gru_dp_bw.decays f4 [3]
0.0 0.0 0.0
00000000: 0000 0000 0000 0000 0000 0000

gru_dp_bw.gru_cell.weight_ih f4 [9, 3]
0.08472675 0.2198965 0.509338 -0.3105255 -0.534279 -0.1413376 0.46332097 -0.54218435
-0.21499777 -0.27119943 -0.12435359 0.44527054 -0.4321585 -0.26019472 -0.082143396 -0.30930454
-0.35133106 -0.09377524 -0.06761134 0.30003494 -0.015931308 0.54378533 0.25908923 -0.4730889
-0.10415676 0.48303533 0.1257667
00000000: 3885 ad3d 8c2c 613e fa63 023f 33fd 9ebe
00000010: 82c6 08bf ceba 10be 6838 ed3e 98cc 0abf
00000020: 6028 5cbe a7da 8abe 18ad febd 80fa e33e
00000030: e143 ddbe 3e38 85be cc3a a8bd 2a5d 9ebe
00000040: aae1 b3be 3c0d c0bd d077 8abd 2e9e 993e
00000050: 6082 82bc 8435 0b3f 58a7 843e b538 f2be
00000060: 2450 d5bd 6850 f73e fcc8 003e

gru_dp_bw.gru_cell.weight_hh f4 [9, 3]
0.38332194 0.014861584 -0.037344098 0.10368341 -0.12781787 0.22471124 -0.42181513 0.25064248
0.48343575 0.075446606 -0.1447128 -0.24665496 0.53742325 0.19111747 0.053806126 -0.45009702
-0.26561534 0.29366165 0.001981914 0.2954741 -0.35108218 -0.23409623 0.35735232 0.3965512
-0.4814999 -0.32689276 -0.33458093
00000000: c642 c43e 007e 733c 20f6 18bd f857 d43d
00000010: b0e2 02be b41a 663e 27f8 d7be 3654 803e
00000020: e484 f73e c083 9a3d 982f 14be 1e93 7cbe
00000030: 9294 093f 4cb4 433e d063 5c3d 1e73 e6be
00000040: bcfe 87be d25a 963e 00e3 013b 6248 973e
00000050: 0bc1 b3be ecb6 6fbe e2f6 b63e c208 cb3e
00000060: 2887 f6be 7d5e a7be 314e abbe

gru_dp_bw.gru_cell.bias_ih f4 [9]
0.4979577 -0.44934973 -0.3954765 0.3626395 -0.1847859 0.17015213 -0.5495587 -0.27152637
-0.36737683
00000000: 50f4 fe3e 2b11 e6be e57b cabe e2ab b93e
00000010: 8438 3dbe 5c3c 2e3e e1af 0cbf 8105 8bbe
00000020: d118 bcbe

gru_dp_bw.gru_cell.bias_hh f4 [9]
0.5544995 0.079933524 -0.46689266 0.5718548 -0.48750716 0.56321967 0.14450246 0.1861276
-0.47314835
00000000: aef3 0d3f 30b4 a33d 8e0c efbe 1465 123f
00000010: 8a9a f9be 2a2f 103f 74f8 133e 3c98 3e3e
00000020: 8040 f2be

gru_dp_bw.ode_net.odeblock.odefunc.fc1.weight f4 [3, 3]
0.40372688 -0.4690586 -0.21846595 -0.41813296 0.37156266 -0.23015499 -0.34916112 0.10687578
0.34383976
00000000: 4ab5 ce3e 7328 f0be 8ab5 5fbe 8615 d6be
00000010: 763d be3e c0ad 6bbe 3fc5 b2be b0e1 da3d
00000020: c40b b03e

gru_dp_bw.ode_net.odeblock.odefunc.fc1.bias f4 [3]
-0.43437937 0.35998297 -0.5540045
00000000: f966 debe b04f b83e 3dd3 0dbf

gru_dp_bw.ode_net.odeblock.odefunc.fc2.weight f4 [3, 3]
0.05259025 0.5537001 -0.21941188 -0.45985377 0.2659853 0.045808613 0.23377359 -0.3805324
0.048909664
00000000: e068 573d 4abf 0d3f 82ad 60be f471 ebbe
00000010: 3a2f 883e d0a1 3b3d 5862 6f3e 25d5 c2be
00000020: 8055 483d

gru_dp_bw.ode_net.odeblock.odefunc.fc2.bias f4 [3]
-0.14182955 0.1233722 -0.5654741
00000000: c43b 11be 90aa fc3d e9c2 10bf

gru_dp_bw.ode_net.odeblock.odefunc.fc3.weight f4 [3, 3]
-0.3778279 0.4500569 -0.14282224 -0.43444556 0.3496613 -0.33677822 0.22174066 0.32225376
-0.1697911
00000000: a972 c1be dc6d e63e fe3f 12be a66f debe
00000010: ce06 b33e 326e acbe fc0f 633e 72fe a43e
00000020: b8dd 2dbe

gru_dp_bw.ode_net.odeblock.odefunc.fc3.bias f4 [3]
0.1585406 -0.46542814 0.4092394
00000000: 7858 223e 994c eebe d487 d13e

gru_cp_bw.decays f4 [4]
0.0 0.0 0.0 0.0
00000000: 0000 0000 0000 0000 0000 0000 0000 0000

gru_cp_bw.gru_cell.weight_ih f4 [12, 4]
0.4420569 0.09514582 -0.4034677 -0.4102373 0.39380634 -0.19054997 -0.39598358 0.44504452
-0.11460453 -0.38706338 -0.16814387 0.16649789 0.28851527 0.16812634 -0.44688302 0.0636031
-0.25172532 -0.0012146235 -0.08508122 -0.13771218 0.3393259 -0.44589597 -0.037890553 -0.16276586
-0.15043336 -0.18692243 -0.49383295 -0.21345389 -0.22456294 -0.26401025 -0.35792887 -0.21032566
-0.15786147 -0.08979821 0.114974916 0.1099022 0.13105333 -0.11578596 -0.08509135 -0.09960276
0.37629247 -0.36780763 0.44732606 -0.02964741 -0.29805702 0.069292784 -0.11961979 0.22590601
00000000: 4855 e23e d0db c23d 5293 cebe a00a d2be
00000010: fca0 c93e 881f 43be 5cbe cabe e0dc e33e
00000020: c8b5 eabd 2c2d c6be e82d 2cbe 6c7e 2a3e
00000030: 46b8 933e 5029 2c3e dacd e4be 5842 823d
00000040: 24e2 80be 0034 9fba 103f aebd 6c04 0dbe
00000050: 20bc ad3e 7a4c e4be 2033 1bbd 18ac 26be
00000060: 340b 1abe 9868 3fbe acd7 fcbe a893 5abe
00000070: d4f3 65be 5a2c 87be 7442 b7be 9c5f 57be
00000080: 70a6 21be 20e8 b7bd f877 eb3d 6814 e13d
00000090: d832 063e 3021 edbd 6044 aebd 88fc cbbd
000000a0: 68a9 c03e 4851 bcbe ec07 e53e 20df f2bc
000000b0: ee9a 98be 60e9 8d3d 38fb f4bd e853 673e

gru_cp_bw.gru_cell.weight_hh f4 [12, 4]
-0.05139357 0.02149421 -0.3783052 0.3338384 -0.18134594 0.2299124 0.008479059 0.003148079
0.4791699 -0.22271115 0.049631774 0.04921812 0.015045404 -0.17156845 0.1815241 -0.31802636
0.45577168 0.40573043 -0.10033679 -0.36339265 -0.27929115 -0.35613108 0.25574678 0.14951861
-0.2974304 -0.080974996 -0.2968591 0.39943212 0.15437508 -0.06324202 -0.04435754 -0.04592824
-0.48670065 0.23429453 0.014175892 -0.11959869 0.4834773 -0.055292428 0.17736149 0.119090736
-0.00080007315 -0.34043545 0.44169998 0.19325274 -0.050656497 -0.14906895 0.12059438 0.019079745
00000000: 1082 52bd a014 b03c 38b1 c1be deec aa3e
00000010: c0b2 39be 286e 6b3e c0eb 0a3c 0050 4e3b
00000020: c255 f53e 640e 64be b04a 4b3d f098 493d
00000030: 0081 763c a4af 2fbe 74e1 393e 5ad4 a2be
00000040: e85a e93e e6bb cf3e 607d cdbd 9a0e babe
00000050: 40ff 8ebe d056 b6be 3ef1 823e 681b 193e
00000060: cc48 98be 38d6 a5bd eafd 97be 5e82 cc3e
00000070: 8014 1e3e 0885 81bd 40b0 35bd 401f 3cbd
00000080: d430 f9be e8ea 6f3e 0042 683c 28f0 f4bd
00000090: 568a f73e 507a 62bd 409e 353e d8e5 f33d
000000a0: 00bc 51ba 8e4d aebe 8026 e23e 0ce4 453e
000000b0: 307d 4fbd 88a5 18be 30fa f63d 204d 9c3c

gru_cp_bw.gru_cell.bias_ih f4 [12]
-0.37758166 0.09265077 0.48298115 0.091190815 0.05012089 -0.16868234 0.34960067 0.20963204
-0.4177742 -0.33696193 0.041002393 0.22505301
00000000: 6252 c1be b0bf bd3d 4e49 f73e 40c2 ba3d
00000010: 904b 4d3d 10bb 2cbe dcfe b23e c8a9 563e
00000020: 80e6 d5be 4686 acbe 20f2 273d 4c74 663e

gru_cp_bw.gru_cell.bias_hh f4 [12]
0.33048123 -0.29311657 -0.23981601 0.48919952 -0.450343 -0.29080957 0.30642772 -0.31657767
0.26863217 -0.06870234 0.097539544 0.2971484
00000000: d634 a93e 6013 96be 5492 75be 5c78 fa3e
00000010: 5c93 e6be fee4 94be 18e4 9c3e 7816 a2be
00000020: 288a 893e d0b3 8cbd d0c2 c73d d623 983e

gru_cp_bw.ode_net.odeblock.odefunc.fc1.weight f4 [4, 4]
-0.48204273 -0.16951072 0.26005143 -0.32896245 -0.039279222 -0.45495558 -0.33652258 0.3987593
-0.2788055 -0.4190992 -0.14839321 0.19659841 0.11315775 0.47030038 -0.36372775 -0.17816061
00000000: 4ece f6be 3894 2dbe 7625 853e c46d a8be
00000010: 40e3 20bd f0ef e8be b04c acbe 2e2a cc3e
00000020: 98bf 8ebe 2c94 d6be 64f4 17be 1851 493e
00000030: 40bf e73d 36cb f03e 863a babe bc6f 36be

gru_cp_bw.ode_net.odeblock.odefunc.fc1.bias f4 [4]
-0.10312855 0.13452548 -0.46263832 -0.2547533
00000000: 1035 d3bd 0cc1 093e eede ecbe 066f 82be

gru_cp_bw.ode_net.odeblock.odefunc.fc2.weight f4 [4, 4]
0.17915612 0.20874798 -0.24487293 0.2976433 0.48523092 -0.40272838 -0.12303603 0.15541118
-0.43085843 -0.21435791 -0.21744996 0.27301085 -0.40225446 0.05519831 0.45415163 -0.16888416
00000000: b474 373e 08c2 553e f8bf 7abe b464 983e
00000010: 3070 f83e 6a32 cebe 50fa fbbd 1c24 1f3e
00000020: 7a99 dcbe a480 5bbe 34ab 5ebe 14c8 8b3e
00000030: 4cf4 cdbe a017 623d 9086 e83e f8ef 2cbe

gru_cp_bw.ode_net.odeblock.odefunc.fc2.bias f4 [4]
-0.09648007 0.31359512 -0.16082734 0.49039775
00000000: 5897 c5bd 8a8f a03e ecaf 24be 6a15 fb3e

gru_cp_bw.ode_net.odeblock.odefunc.fc3.weight f4 [4, 4]
0.4107396 0.38659197 -0.38609034 0.46485955 0.073595285 0.07472873 0.35252196 -0.19859868
0.26001865 -0.01818651 0.41508853 0.077356935 -0.19557732 -0.19163197 -0.2834432 0.23218518
00000000: 764c d23e 62ef c53e a2ad c5be 1202 ee3e
00000010: 20b9 963d 600b 993d c27d b43e 745d 4bbe
00000020: 2a21 853e e0fb 94bc 7c86 d43e 506d 9e3d
00000030: 6c45 48be 2c3b 44be 781f 91be f4c1 6d3e

gru_cp_bw.ode_net.odeblock.odefunc.fc3.bias f4 [4]
-0.3054645 -0.022834301 -0.34832203 -0.45139903
00000000: d865 9cbe 000f bbbc 4457 b2be c61d e7be

fc_dp.weight f4 [1, 6]
0.38467497 -0.24981019 -0.26587668 0.17877305 -0.085547954 -0.19712453
00000000: 1ef4 c43e 3ece 7fbe fd20 88be 4810 373e
00000010: c433 afbd 03db 49be

fc_cp.weight f4 [1, 8]
0.1561347 -0.3454192 0.041451752 -0.2598477 0.25439945 -0.03948307 -0.30374432 0.1669397
00000000: c6e1 1f3e c9da b0be 50c9 293d c20a 85be
00000010: a540 823e 00b9 21bd 6084 9bbe 3ef2 2a3e

fc_all.weight f4 [1, 12]
0.2003504 0.2342977 0.16030532 0.2567792 -0.2088711 0.17307091 -0.09971799 0.17968485
-0.0040022433 0.1046195 0.10543725 -0.26453105
00000000: a828 4d3e bceb 6f3e 1427 243e 9078 833e
00000010: 4ee2 55be 8039 313e f238 ccbd 4eff 373e
00000020: 4025 83bb c042 d63d 7cef d73d 9d70 87be
