logdir/bayesian/final_model.pt (torch, 9937 bytes, 22 tensors)

embed_dp.weight_mu f4 [8, 4]
00000000: 0000 0000 0000 0000 0000 0000 0000 0000
00000010: bd51 eabd 8cbe 133d 4b4f 2b3e ae1a 09be
00000020: 2ca8 673d 50d4 ce3c c618 1abe c026 c1bb
00000030: 23da cdbd 3051 e5bc ec40 7e3d 3a49 9e3d
00000040: ce08 e43d 6339 103e dc96 743d c128 203e
00000050: f3d7 cfbd 5052 57bc 4870 1ebe 2515 0b3e
00000060: 6aac bebd c057 f13b 34f8 7abd 2882 97bc
00000070: 681a 4abd de60 e63d b87b 2abe e07c 4ebc
0.0 0.0 0.0 0.0 -0.114413716 0.03607039 0.16729467 -0.13389084
0.056556866 0.025247723 -0.15048513 -0.005894512 -0.10051372 -0.027992815 0.062073633 0.077288106
0.11134492 0.14084391 0.059714183 0.15640546 -0.10148611 -0.013142183 -0.1547252 0.13582285
-0.09310229 0.007365197 -0.06127186 -0.01849468 -0.04934159 0.11248945 -0.16648757 -0.012603015

embed_dp.weight_rho f4 [8, 4]
00000000: 0000 0000 0000 0000 0000 0000 0000 0000
00000010: 3035 8fc0 ad99 95c0 37c2 8bc0 3898 9cc0
00000020: c2cf 84c0 c871 9dc0 acf9 95c0 4236 87c0
00000030: bd2c 88c0 c4d1 9ac0 1c8d 88c0 859a 81c0
00000040: 9c53 92c0 2560 83c0 5ed2 94c0 92ab 9ac0
00000050: e989 95c0 1e75 86c0 6a50 8dc0 d282 83c0
00000060: b3a3 84c0 4b0f 9dc0 70c9 9bc0 788b 95c0
00000070: a5da 85c0 a420 8ec0 369f 9ec0 3a86 8cc0
0.0 0.0 0.0 0.0 -4.4752426 -4.6750093 -4.367458 -4.8935814
-4.150361 -4.9201393 -4.6867275 -4.2253733 -4.255461 -4.838106 -4.2672253 -4.0501122
-4.572706 -4.1054864 -4.6506796 -4.8334436 -4.6730847 -4.2017965 -4.416066 -4.1097193
-4.144983 -4.908117 -4.8683395 -4.673275 -4.18294 -4.4414845 -4.956935 -4.391385

embed_cp.weight_mu f4 [20, 6]
00000000: 0000 0000 0000 0000 0000 0000 0000 0000
00000010: 0000 0000 0000 0000 005c bcb9 f81a 70bd
00000020: e022 68bc 4841 2dbe b93a 0b3e 1a6d 27be
00000030: cdda b3bd 44ff 583d 5049 d4bd da88 b93d
00000040: f4b7 113d a038 81bd 8b34 29be d5d4 12be
00000050: f2f8 da3d 62ef f53d d110 303e 1ada b53d
00000060: 2cfd 283d 97d4 293e 96fa c23d a0fd 9cbd
00000070: 705c 44be 60ed 0e3d ff1b 043e 001c ecba
00000080: a019 48be 6094 68bd 282e fbbc c092 de3b
00000090: 44f7 98bd a099 0ebd 3045 403c 1ebc e53d
000000a0: 1fec 473e e180 143e 6962 383e f090 b53c
000000b0: 9652 ae3d 8008 373b 34c1 0ebd 476d c4bd
000000c0: b42a 33bd a747 cdbd 26b4 8c3d 5a08 f53d
000000d0: e87f 68bd 1aa1 04be 591c 0a3e 5359 e2bd
000000e0: 3013 0f3c 802d a53c 563a ab3d 5879 b8bc
000000f0: 4f29 4bbe 78ec 093d e239 9b3d a7aa e3bd
00000100: 16f2 1dbe d8e2 3abd 3ea6 da3d d47d 2b3d
00000110: 8600 24be 8db8 a1bd d394 2abe 1743 093e
00000120: 25cb 44be e194 143e f80e 51bd 3b32 353e
00000130: c6df e93d a7bd 203e f4d6 59bd 3076 ed3c
00000140: 96ba d53d 5200 f13d a08f afbb 81b3 453e
00000150: d607 2bbe c222 ba3d a619 9e3d 96b2 0fbe
00000160: e0ce fabd 30c6 fcbc 2526 333e 00d8 ea3c
00000170: a78d abbd e474 5b3d 582a fabc 407b 6dbb
00000180: 3668 80bd efab 393e 20c8 103c ab24 30be
00000190: 60f3 c3bb f54f 25be 80d3 243b ed5b cebd
000001a0: 69b1 423e edbe 11be 34e8 09bd 7a10 debd
000001b0: fd25 e4bd bec2 b93d c0a0 eb3b 0cff 10bd
000001c0: e2f0 893d 382e 2e3d 5e62 ee3d 6a22 ce3d
000001d0: 6820 e93c a56b 1abe 12ab 8f3d 920f 1ebe
0.0 0.0 0.0 0.0 0.0 0.0 -0.000359267 -0.05861947
-0.014168471 -0.16919434 0.1359662 -0.16350213 -0.08781967 0.052977815 -0.10365546 0.090593055
0.035575822 -0.063096285 -0.1652395 -0.14339001 0.10692014 0.12008549 0.17193915 0.0887949
0.04125707 0.16585003 0.09520452 -0.07665563 -0.19175887 0.034894347 0.12901305 -0.0018013716
-0.19541025 -0.056782126 -0.030661657 0.0067923963 -0.07469037 -0.034814477 0.011735246 0.11217521
0.19523667 0.14502288 0.1800629 0.022163838 0.08511846 0.002792865 -0.03485222 -0.095911555
-0.043741897 -0.10023432 0.06870298 0.119644836 -0.056762606 -0.1295208 0.13487376 -0.110521935
0.008732602 0.020163298 0.08360736 -0.022518799 -0.19839977 0.03367278 0.075794 -0.11116534
-0.1542438 -0.04562649 0.106762394 0.041868046 -0.16015825 -0.078965284 -0.16658334 0.13404499
-0.19218118 0.14509918 -0.051039666 0.17694943 0.114196345 0.15697347 -0.05318351 0.02898702
0.10435979 0.11767639 -0.0053576976 0.19306757 -0.16702208 0.09088661 0.07719736 -0.14032969
-0.122464895 -0.030856222 0.1749502 0.02866745 -0.083766274 0.053578272 -0.03053777 -0.0036236793
-0.06269877 0.18131994 0.008836776 -0.17201488 -0.0059799403 -0.16143782 0.0025150478 -0.10076127
0.19012989 -0.14232989 -0.03366871 -0.108429864 -0.11140058 0.09070347 0.0071907938 -0.03539948
0.06735398 0.042524546 0.11639856 0.10065158 0.028457835 -0.15080126 0.07015051 -0.15435627

embed_cp.weight_rho f4 [20, 6]
00000000: 0000 0000 0000 0000 0000 0000 0000 0000
00000010: 0000 0000 0000 0000 6e38 8cc0 f4db 89c0
00000020: 73c7 8ac0 08c6 90c0 be3a 88c0 85a6 88c0
00000030: 0df8 9dc0 3021 88c0 3e5e 9ac0 c66f 8cc0
00000040: 47bb 8ac0 b1a6 9dc0 0a02 9dc0 ca28 8ec0
00000050: 9a66 9ec0 6a27 84c0 44f6 9cc0 04c0 93c0
00000060: 444c 9dc0 3a75 9cc0 8c81 86c0 1a83 99c0
00000070: 9ff1 88c0 9c35 87c0 2a58 9ec0 0ed8 83c0
00000080: a017 92c0 22cc 86c0 9211 93c0 d858 8dc0
00000090: 374d 8bc0 f6d7 8fc0 dd2d 8ec0 b7ef 93c0
000000a0: 2c2d 82c0 675e 80c0 9d92 81c0 10c8 93c0
000000b0: 3293 91c0 f274 9ec0 c5be 98c0 6de6 9ec0
000000c0: 18bc 84c0 4bef 9ec0 4d7d 85c0 780a 9fc0
000000d0: 91ad 91c0 1e95 93c0 8a81 80c0 6190 8ec0
000000e0: 142f 91c0 22dc 9cc0 6405 91c0 aae8 9ec0
000000f0: 7432 80c0 c0c2 87c0 36ca 98c0 9fc3 9ec0
00000100: 05c0 95c0 7d8e 87c0 be8a 86c0 8ad9 8cc0
00000110: 1266 86c0 1061 9fc0 eecd 91c0 60e0 93c0
00000120: 203b 95c0 84b7 86c0 c04b 92c0 06c2 84c0
00000130: 8c9e 9ec0 9b66 95c0 1433 8ec0 5618 8dc0
00000140: 7ab2 97c0 968b 85c0 3ea6 85c0 e069 84c0
00000150: 6df3 8fc0 007b 9bc0 4458 90c0 b36c 99c0
00000160: 95a9 99c0 feea 88c0 9757 93c0 82dc 9cc0
00000170: 8ce6 9dc0 0987 8ec0 2bab 89c0 7ed3 8dc0
00000180: 3de3 98c0 915d 9cc0 d094 92c0 b077 83c0
00000190: 5df8 95c0 4a12 87c0 67dd 84c0 20e8 91c0
000001a0: 6b57 84c0 2b94 94c0 931f 86c0 4195 8cc0
000001b0: 5491 8bc0 a274 9dc0 f586 88c0 9a93 99c0
000001c0: bb9f 95c0 26cd 91c0 ea92 84c0 453a 9ac0
000001d0: d21e 84c0 513b 82c0 dd07 9fc0 72b0 90c0
0.0 0.0 0.0 0.0 0.0 0.0 -4.3818884 -4.3080997
-4.336847 -4.5241737 -4.2571707 -4.270327 -4.9365296 -4.254051 -4.824004 -4.388644
-4.335361 -4.926598 -4.906499 -4.442479 -4.9500246 -4.1298113 -4.9050617 -4.6171894
-4.91556 -4.88931 -4.203314 -4.7972536 -4.279495 -4.225294 -4.948262 -4.120124
-4.565384 -4.2124186 -4.595895 -4.417095 -4.3531756 -4.4951124 -4.4430985 -4.623012
-4.068014 -4.0115237 -4.049147 -4.6181717 -4.549218 -4.9517756 -4.7732873 -4.965628
-4.1479607 -4.9667106 -4.1715455 -4.970028 -4.5524373 -4.611953 -4.015813 -4.4551244
-4.536997 -4.9018717 -4.531908 -4.9659014 -4.006159 -4.242523 -4.774684 -4.9613795
-4.67969 -4.2361436 -4.2044363 -4.401555 -4.1999598 -4.9805984 -4.556388 -4.6211395
-4.6634674 -4.209902 -4.571747 -4.1486845 -4.956854 -4.668775 -4.443735 -4.4092207
-4.7405367 -4.1732893 -4.176543 -4.137924 -4.498465 -4.8587646 -4.5107746 -4.794519
-4.801951 -4.2786856 -4.604442 -4.9019175 -4.934393 -4.453984 -4.3021445 -4.432067
-4.777739 -4.8864217 -4.5806656 -4.1083603 -4.686568 -4.2209826 -4.1520267 -4.5595856
-4.135671 -4.643087 -4.1913543 -4.3932195 -4.3614902 -4.9204874 -4.2664742 -4.799268
-4.6757483 -4.5562925 -4.142934 -4.819613 -4.1287622 -4.069741 -4.96971 -4.5215387

attention_dp.context_mu f4 [5]
00000000: b3f3 393e e520 1ebe 40ed de3c 6ac2 d8bd
00000010: 40c1 173d
0.1815937 -0.15442236 0.027212739 -0.105839565 0.037049532

attention_dp.context_rho f4 [5]
00000000: aa56 88c0 9c2b 97c0 b91b 85c0 4547 87c0
00000010: 0c2c 8ac0
-4.260579 -4.7240734 -4.159634 -4.22745 -4.317877

attention_dp.linear_hidden.weight_mu f4 [5, 5]
00000000: 5d41 9cbd bd75 dabd 1844 bc3c 5906 123e
00000010: 00e9 dc3c 50a4 19be ed65 03be b71b 303e
00000020: 2236 de3d 62d4 f43d 92c4 b33d 832b c0bd
00000030: 0580 253e 0749 9abd 70f8 c63c 9006 9bbd
00000040: ba27 e93d ba2a febd 60ce 0ebe 50fa 883c
00000050: 5091 443c a505 15be 0cf6 96bd 3dad 2abe
00000060: 2c77 86bd
-0.076296546 -0.10666988 0.022981688 0.14260234 0.026966572 -0.15004086 -0.1283185 0.17198072
0.10850169 0.11954571 0.08777727 -0.09383299 0.16162117 -0.0753346 0.024288386 -0.07569611
0.1138453 -0.12410493 -0.13945913 0.01672092 0.011997536 -0.14552934 -0.073711485 -0.16667648
-0.06565699

attention_dp.linear_hidden.weight_rho f4 [5, 5]
00000000: a0ba 91c0 b221 8ec0 0880 9fc0 c2f5 90c0
00000010: d417 89c0 78e9 89c0 1d50 96c0 5335 82c0
00000020: 4cd9 81c0 32e2 80c0 35d4 8dc0 61c3 9ec0
00000030: 76e4 97c0 5a8e 81c0 f8da 92c0 7d1f 9cc0
00000040: 9703 90c0 1ff0 8ac0 f8f2 96c0 b809 84c0
00000050: 52e0 84c0 3f70 9ec0 87ac 9dc0 ed25 94c0
00000060: 9bbc 91c0
-4.5540314 -4.441613 -4.984379 -4.5299997 -4.2841587 -4.3097496 -4.6972795 -4.0690093
-4.0577755 -4.0276117 -4.432154 -4.96135 -4.7466383 -4.048627 -4.5892296 -4.878844
-4.500438 -4.3418117 -4.7171593 -4.1261864 -4.152383 -4.951202 -4.9273105 -4.6296296
-4.554273

attention_dp.linear_hidden.bias_mu f4 [5]
00000000: 197d 3c3e ba7d c8bd 4ee3 1bbe b0cc f8bc
00000010: 2001 6abc
0.18407096 -0.097896054 -0.15223429 -0.03037104 -0.014282495

attention_dp.linear_hidden.bias_rho f4 [5]
00000000: 4ac9 93c0 f7f3 86c0 b4ac 89c0 b47e 82c0
00000010: b0e2 8ec0
-4.6183214 -4.217281 -4.302332 -4.0779667 -4.465172

attention_cp.context_mu f4 [7]
00000000: 03d7 0b3e 2454 763d 67e1 c8bd 0ac1 953d
00000010: 6efc c63d b091 bd3c 001d c63a
0.13656239 0.060138837 -0.09808617 0.0731221 0.09716116 0.023140758 0.0015114844

attention_cp.context_rho f4 [7]
00000000: a9c2 90c0 d87b 94c0 7262 9cc0 0807 80c0
00000010: 5826 8cc0 13db 87c0 af77 89c0
-4.523762 -4.6401176 -4.8870173 -4.0008583 -4.3796806 -4.2454925 -4.29586

attention_cp.linear_hidden.weight_mu f4 [7, 7]
00000000: 2f7e 2f3e 8f85 30be 5449 423d fe75 00be
00000010: 971a d6bd 2614 1dbe b808 38be 61a1 393e
00000020: 2d88 143e acf0 21bd b118 393e 09f1 083e
00000030: 2768 c8bd e9d9 013e 44df 97bd 1928 353e
00000040: fa9f ae3d d8fb 5ebd b8b8 00be 8d3a 49be
00000050: 792a 4a3e 4ce8 0a3d b4c4 783d 5ab0 d93d
00000060: c376 24be c01d 35be 9648 873d d21b 32be
00000070: d071 babc f41d 623d f0e5 fabc c200 803d
00000080: 8b95 4a3e 2d6d 34be 58f8 efbc 297b 4a3e
00000090: dbbd 49be 771a 3ebe 03fc 1e3e 8c29 623d
000000a0: d34a ccbd 537f 2f3e 9aca bc3d 580e 3e3d
000000b0: fdbc 48be faf3 8ebd 76be ab3d 80cb 5cbc
000000c0: a35e 2f3e
0.17137979 -0.17238449 0.047433212 -0.1254501 -0.1045429 -0.15339717 -0.17972076 0.18127967
0.14505072 -0.039536163 0.18075825 0.13373198 -0.097854905 0.12680782 -0.074156314 0.17691077
0.08526607 -0.054439396 -0.12570465 -0.19651242 0.19742765 0.03391294 0.060734466 0.106293395
-0.16060929 -0.1768713 0.066056415 -0.17393425 -0.022759348 0.055204347 -0.03062722 0.062501445
0.19783609 -0.17619772 -0.029293224 0.19773544 -0.1970133 -0.18564783 0.15525822 0.055215403
-0.09975209 0.17138414 0.09218331 0.046400398 -0.19603343 -0.069801286 0.08385937 -0.013476253
0.17125945

attention_cp.linear_hidden.weight_rho f4 [7, 7]
00000000: 137e 9bc0 3643 90c0 6478 9bc0 26b4 8dc0
00000010: 73bd 98c0 e018 8cc0 49be 9fc0 756a 96c0
00000020: 2a50 8fc0 683f 8fc0 37fa 9ec0 ae28 80c0
00000030: ba8e 92c0 a10f 8bc0 2917 8fc0 11e4 8ac0
00000040: e5ea 9ac0 eca2 86c0 d0ea 84c0 c34b 83c0
00000050: 4c64 99c0 adb0 89c0 6a37 96c0 2e17 86c0
00000060: a337 81c0 7951 95c0 7960 89c0 0b99 8dc0
00000070: 74ad 97c0 d609 80c0 e41e 9cc0 916b 8ec0
00000080: a19e 94c0 a51a 98c0 3c89 8bc0 7356 99c0
00000090: 1593 87c0 6605 8ac0 91b9 90c0 60bb 81c0
000000a0: 3ecf 84c0 fbcc 87c0 8801 86c0 6069 92c0
000000b0: 87d6 95c0 81a5 94c0 fce0 82c0 6bd1 8ec0
000000c0: bc4b 80c0
-4.85914 -4.5082045 -4.858446 -4.428241 -4.773126 -4.3780365 -4.991978 -4.7004952
-4.4785357 -4.47649 -4.968044 -4.004966 -4.5799227 -4.345658 -4.471577 -4.34034
-4.8411736 -4.207388 -4.1536636 -4.1029983 -4.7934933 -4.302817 -4.6942644 -4.1903296
-4.0380416 -4.6661954 -4.2930264 -4.424932 -4.7399235 -4.0012007 -4.878771 -4.4506307
-4.644364 -4.7532525 -4.3605022 -4.791803 -4.2367043 -4.313159 -4.522652 -4.054123
-4.150298 -4.243772 -4.187687 -4.575363 -4.6824374 -4.645203 -4.089964 -4.4630637
-4.009245

attention_cp.linear_hidden.bias_mu f4 [7]
00000000: e6cb 843d 8e91 803d dede b93d 5584 19be
00000010: f540 12be 38f1 63bd 948d 5dbd
0.06484203 0.06277762 0.09075712 -0.14991887 -0.14282592 -0.055649966 -0.054090098

attention_cp.linear_hidden.bias_rho f4 [7]
00000000: 9e0e 92c0 063d 81c0 c614 96c0 52b9 84c0
00000010: 4c18 8fc0 3def 8dc0 9bac 81c0
-4.5642843 -4.038699 -4.690036 -4.147622 -4.471716 -4.435454 -4.05232

fc_dp.weight_mu f4 [1, 5]
00000000: 9f99 3cbe 3ae5 fa3d 4071 a4bb f733 1b3e
00000010: d072 7bbc
-0.18417977 0.12250753 -0.0050183833 0.15156542 -0.015347198

fc_dp.weight_rho f4 [1, 5]
00000000: 6a28 9cc0 773e 88c0 18c2 96c0 b809 92c0
00000010: 4745 9fc0
-4.8799334 -4.257625 -4.711193 -4.5636864 -4.9772067

fc_cp.weight_mu f4 [1, 7]
00000000: a68d 91bd 5022 cebc ae5e ff3d 8409 753d
00000010: d3d2 29be e0a7 083c ee67 04be
-0.071070954 -0.025162846 0.124692306 0.059823528 -0.1658433 0.008340806 -0.12930271

fc_cp.weight_rho f4 [1, 7]
00000000: 36c8 8ec0 9d8e 85c0 2af7 95c0 6394 87c0
00000010: b5e4 8cc0 0003 84c0 6a9a 81c0
-4.46194 -4.173659 -4.6864214 -4.2368636 -4.4029183 -4.125366 -4.0500994

fc_all.weight_mu f4 [1, 12]
00000000: c9b5 043e 5604 25be 608e 8ebb 0295 db3d
00000010: ba81 c53d d8d9 3e3d a012 6dbd e814 b0bc
00000020: a526 2dbe dbd7 423e 71ed 2b3e acba 14bd
0.1295997 -0.16114935 -0.0043504685 0.1072178 0.09643884 0.04659447 -0.05787909 -0.021494344
-0.16909273 0.19027655 0.16789795 -0.036310837

fc_all.weight_rho f4 [1, 12]
00000000: 420d 9cc0 6c88 91c0 6512 97c0 8a5b 98c0
00000010: b3f6 9ec0 fc55 97c0 5fd7 95c0 1f83 80c0
00000020: 2f86 84c0 25f3 89c0 bca9 99c0 50f6 98c0
-4.8766184 -4.547903 -4.7209954 -4.761174 -4.9676147 -4.729246 -4.6825404 -4.016006
-4.14138 -4.3109307 -4.8019695 -4.7800674
