logdir/rnn_log/final_model.pt (torch_old, 5094 bytes, 8 tensors)

gru.weight_ih_l0 f4 [24, 8]
000000 7b fe 72 be 66 b4 a3 3e 73 49 8e be d2 84 2a 3e
       -0.23729889 0.3197357 -0.27790412 0.1665223
000010 75 fb 73 bd 96 4c b6 bd 86 37 a9 3e 4a 6f 79 3e
       -0.05956598 -0.08901326 0.33050174 0.2435886
000020 6a 02 b3 3d 75 11 8e 3d 05 1a 05 be e4 0f c0 3e
       0.08740695 0.069369234 -0.12998207 0.37512124
000030 3e d5 6a 3e f3 6c 63 bd d3 c7 92 be 50 bf e8 bd
       0.22932908 -0.055523824 -0.2866808 -0.11364615
000040 55 57 45 be ac 25 e0 3d d4 9b 96 3e 1a e2 03 3e
       -0.19271596 0.10944685 0.29415762 0.1287922
000050 1a c4 f7 bd 18 21 ae be ba f9 b7 be 00 a0 36 3b
       -0.1209795 -0.34009624 -0.35932714 0.0027866364
000060 80 c5 03 3e 78 28 e3 3c f1 17 77 3d e8 7c ff bd
       0.12868309 0.027729258 0.060325567 -0.12474996
000070 16 69 84 3e 1f db a5 be 61 bd 6c 3e 00 9d a4 bc
       0.25861424 -0.3239374 0.23119117 -0.020094395
000080 a3 73 a4 bd 49 5b 99 bd 2f 8c 58 3e b8 c8 e9 bd
       -0.080298685 -0.074881144 0.21147226 -0.11415237
000090 d8 9d 64 be c0 12 9d bd 27 38 3b be 4a 6c 71 be
       -0.22325838 -0.07669592 -0.18283139 -0.23576465
0000a0 1f 5f 40 3c c6 b3 8f be 17 d1 74 3e f8 7f 8b be
       0.011741429 -0.28066844 0.23907886 -0.2724607
0000b0 4b e4 87 be 2e bb 40 3e 68 54 99 3d a0 59 00 bd
       -0.2654136 0.18821403 0.07486802 -0.031335473
0000c0 67 ab c3 3e d5 7a d8 bd 84 01 88 3d e4 16 05 3d
       0.38216707 -0.10570303 0.06640914 0.032492533
0000d0 8a 36 a0 3e d8 fe 27 be fb 17 17 3d 58 3b 0f 3e
       0.3129161 -0.16405809 0.036888104 0.13987482
0000e0 80 41 9b 3e cc 95 93 be 1d fa 9c be a1 2a c1 bd
       0.3032341 -0.28825223 -0.3065957 -0.09431959
0000f0 e3 2a 77 bc a6 74 a4 3e cf 4f c0 bd d5 0f 95 3e
       -0.015085909 0.32120246 -0.09390222 0.2911364
000100 90 e5 aa be f9 4e b7 3e bd a0 00 bd 90 94 be 3e
       -0.33378267 0.3580244 -0.031403292 0.3722272
000110 b3 2c 5d 3e 18 10 5d be ae 19 d8 3e 10 56 93 bc
       0.21599083 -0.2158817 0.42207092 -0.017985374
000120 37 9b d8 bd e7 43 88 be f9 40 8b 3e 31 7a 3e be
       -0.1057648 -0.26614305 0.27198008 -0.186013
000130 32 b4 1e be 5e 9d 7f be a4 87 b5 bd fa 82 3b 3e
       -0.15498427 -0.24962375 -0.08863762 0.18311682
000140 fb c3 1f be 3f 3f 4e 3e 28 8e 7b be 14 ec 57 3d
       -0.15602104 0.20141314 -0.24565947 0.052715376
000150 d4 64 28 3d 32 fa f3 bd b2 2b 09 3e 96 1a 16 3e
       0.041111782 -0.11912955 0.13395575 0.14658579
000160 46 81 08 3e 43 2f 77 be 46 26 da be 10 9b c4 3d
       0.13330564 -0.24139123 -0.42607325 0.09599888
000170 5d e6 68 be c8 2c 94 be 4f 41 35 3e f0 95 5b 3d
       -0.22744127 -0.28940415 0.17700695 0.05360979
000180 01 b0 0c 3e 76 38 2c 3d 6b aa 96 be cd ac c1 3e
       0.13739015 0.042046033 -0.29426894 0.3782715
000190 0c da 51 3e a0 fa a4 be 4b b7 71 3e bc 81 06 3e
       0.20493335 -0.32222462 0.23605077 0.13135427
0001a0 76 85 8c bd d2 62 15 3e b4 a2 f8 bd 1e 5f 37 be
       -0.06861393 0.14588478 -0.12140408 -0.17907378
0001b0 a7 8f ee bd 2d 9a 47 3d 17 4e 3f be c0 a5 aa bc
       -0.11648493 0.048731018 -0.18682133 -0.020830989
0001c0 9a 80 b1 be db 46 81 be 42 ed 3e 3d 41 47 7b 3e
       -0.34668428 -0.2524937 0.046612985 0.245389
0001d0 b7 c2 b6 3d 4e ae 9f be 2c f6 e5 bd d8 bf fe 3d
       0.08923858 -0.3118767 -0.11228594 0.12438935
0001e0 16 1b 04 be 6e e5 44 be be ed 17 bd 7e 26 4f bd
       -0.12900957 -0.19228145 -0.037091963 -0.05057382
0001f0 ed fc 01 3d 20 b9 cb 3d 97 95 dd 3d 94 19 9f 3d
       0.03173535 0.09947419 0.108195476 0.077685505
000200 a4 11 80 bc 83 1d 46 be 8b 84 a0 3e 9c 45 a5 be
       -0.015633412 -0.19347195 0.31351122 -0.3227967
000210 80 45 a1 3d 79 9f 30 3e f5 c2 32 be b5 69 0c be
       0.07874584 0.17248334 -0.17457183 -0.13712199
000220 6e 78 0f bb 32 9f 89 be 48 60 88 be eb d2 b0 3e
       -0.002189185 -0.2687927 -0.26635957 0.34535918
000230 82 9e d4 3d b7 a2 29 be 54 da bb be 10 6a 4d be
       0.103817955 -0.16565977 -0.3669001 -0.20059991
000240 a9 a6 28 3e 13 50 9c be 6b 8c 09 3d 01 96 ae 3e
       0.16469826 -0.30529842 0.03358118 0.3409882
000250 82 80 57 be ef d8 c7 bd 53 f5 36 be ab b6 8f 3e
       -0.21045116 -0.09758174 -0.17867021 0.28069052
000260 cd 86 84 be 41 9b 83 3e 9a 42 be 3e bd 01 98 be
       -0.25884095 0.25704387 0.37160188 -0.29688826
000270 ca 23 c7 3d d8 11 22 3e 1f 9b 99 3d 76 cd 60 3e
       0.09723623 0.1582712 0.0750029 0.21953377
000280 d0 72 5d be cd 4d a2 be d0 7b 5a be ef 81 d1 3e
       -0.21625829 -0.31699982 -0.21336293 0.40919444
000290 17 96 23 be 8f 0f 29 be eb 60 7e bb 1c 8e df bd
       -0.15975223 -0.16509841 -0.0038815092 -0.10915777
0002a0 b1 ac b3 3e b8 ff 8c 3d 06 41 6c be e3 3e 0e 3e
       0.3509269 0.06884712 -0.2307168 0.13891177
0002b0 bd 8e c8 bc c9 f7 1d 3e 63 39 b7 be aa 09 69 3e
       -0.024482125 0.15426554 -0.3578597 0.22757593
0002c0 8f 05 2d be 02 de 1b 3d 35 4f 19 be d9 89 96 3e
       -0.16896652 0.03805352 -0.14971621 0.29402044
0002d0 aa cd 95 3d 58 af 03 be fa 9e 2c 3e 58 0d 03 be
       0.07314618 -0.12859857 0.1685752 -0.12798059
0002e0 9d 81 ef 3d 0f df fd bd c2 ed a2 bc 71 1a 7c 3e
       0.11694644 -0.12396061 -0.019888762 0.24619462
0002f0 c3 50 47 be e5 9c 50 be c6 bb 67 be 01 ec 3e be
       -0.19464402 -0.2037235 -0.22630224 -0.18644716

gru.weight_hh_l0 f4 [24, 8]
000000 47 e1 b9 bd c8 61 07 3e 95 fd bd be d5 92 b8 bc
       -0.09076171 0.13220894 -0.3710753 -0.022530952
000010 78 39 01 bd 13 7a dc bd 7b 9f 4f 3e 68 9b 37 bd
       -0.031548947 -0.10765471 0.2027568 -0.04482594
000020 77 21 5c be 7c 88 4c 3e e9 e0 1c be a4 e7 c5 bd
       -0.21497141 0.1997394 -0.15320171 -0.096633226
000030 b2 15 87 3d f9 61 f0 bd 0a 11 ac bd 3f 38 51 3d
       0.06595935 -0.11737437 -0.084016874 0.05107903
000040 30 fd b3 bc fa 41 ec bd f9 21 0a be 80 23 b5 bd
       -0.021971315 -0.115360215 -0.13489522 -0.08844662
000050 cf dc 1e be 4d f9 f0 3d 65 db c0 3c 37 21 ba 3d
       -0.1551392 0.117663 0.023542115 0.090883665
000060 ef 67 6a be df 85 40 be 92 75 67 be d8 cb 56 be
       -0.2289121 -0.18801068 -0.22603443 -0.20976198
000070 d5 89 9f be 43 a5 29 be c8 e1 aa 3e c8 f6 90 be
       -0.31159845 -0.16566949 0.33375382 -0.2831328
000080 a2 37 7a 3e f9 5e 16 3d bb df d1 3d 68 00 c6 3e
       0.24435285 0.036711667 0.10247751 0.38672185
000090 17 94 ae 3e 59 8e 20 3e 00 ba 82 3e e3 4e 89 bc
       0.3409736 0.15679301 0.25532532 -0.016761249
0000a0 83 57 87 bd 92 a5 31 be 82 a1 83 3d c0 b3 a6 3e
       -0.066084884 -0.17348316 0.064272895 0.32559013
0000b0 a7 51 78 bd 75 9f 6c be c8 b1 42 be f1 e6 8e 3e
       -0.060624745 -0.23107703 -0.1901313 0.2791057
0000c0 e6 c5 5e be 57 c6 e9 3d 39 46 68 be 17 b8 bd be
       -0.2175518 0.114147834 -0.22683038 -0.37054512
0000d0 2e 1d a5 3d 83 23 18 be 3b 66 79 3e 03 62 81 3e
       0.08062206 -0.14857297 0.24355404 0.2527009
0000e0 fe 9a 81 3b d8 c8 bb bd 40 bc 5e be d8 86 b5 bc
       0.003955244 -0.09169167 -0.21751499 -0.022159025
0000f0 64 7e 96 be b2 71 48 3e 67 1b 63 be c1 f8 cd bd
       -0.29393303 0.19574621 -0.22178422 -0.10057212
000100 42 90 86 3e a3 81 f8 bd 49 87 92 be 47 d3 47 3e
       0.26281935 -0.12134101 -0.2861884 0.1951419
000110 2f d4 86 be b7 34 e5 be 42 c3 43 3e 64 0d ec bd
       -0.26333758 -0.4476678 0.19117454 -0.115259916
000120 be 7b d7 3c 1b fd 03 be 77 ba a0 be 67 4e c4 3c
       0.026304122 -0.12889521 -0.3139226 0.023963166
000130 e6 e5 0a 3e f0 fc 51 be 62 9c b8 3e 76 66 6c be
       0.13564262 -0.20506644 0.3605681 -0.23085961
000140 9d 78 9e bb 14 9c 59 3e 0b c3 69 3c 62 fa f5 bd
       -0.0048361556 0.21250945 0.014267693 -0.12010647
000150 7d 31 6c be e9 ba 89 3e 0c 02 76 3e b2 c2 a8 3e
       -0.23065753 0.26900414 0.24024218 0.3296104
000160 6f dd f8 3d 90 16 dd be c4 8e b4 be b4 d5 d3 3d
       0.1215161 -0.43181276 -0.35265172 0.10343495
000170 76 f3 68 3e 68 2f 88 bd bd 64 95 3e 9b 27 ae 3c
       0.22749123 -0.06649667 0.2917842 0.02125912
000180 21 53 a8 3e 6b a0 81 3e eb 28 ca 3c 8f 66 72 be
       0.32875922 0.25317702 0.024677714 -0.23671935
000190 af 8d 69 be d4 3c 42 be a1 e2 82 3d ae 26 87 3e
       -0.22807954 -0.18968517 0.06390882 0.26396698
0001a0 e0 bc 91 3c 4e 32 3c be cf a8 90 3e 1e ba 88 3d
       0.017790258 -0.18378565 0.2825379 0.06676124
0001b0 3f 0b bb 3e d5 e5 82 be 37 ab 9b 3e 99 07 aa 3c
       0.36532018 -0.25565973 0.30404064 0.020755576
0001c0 9b 08 34 3e 72 00 91 3e b0 8d b7 bc d0 9d 06 3c
       0.17581408 0.28320652 -0.022406429 0.008216336
0001d0 8f 1a b7 be e8 0d 24 be dd 9f 05 3d b4 c5 22 3e
       -0.3576245 -0.1602093 0.03262316 0.1589573
0001e0 b8 4a 99 3e db 1e 48 3e 38 c3 af bd 96 a2 a3 3d
       0.29939818 0.1954302 -0.08582157 0.07989995
0001f0 ca 36 7e 3e ab a8 17 3e b7 8d bf 3a 1a e8 3d be
       0.24825588 0.14810435 0.0014614378 -0.18545571
000200 9e 30 61 bd 1b 11 e3 be f8 b8 57 3e a3 47 dc bb
       -0.054978006 -0.44348988 0.21066654 -0.006722407
000210 c9 88 2e be b8 fc 9f be ce 6b a3 be 56 d5 c5 be
       -0.17044367 -0.31247497 -0.31918186 -0.38639325
000220 3b 1a aa be 41 ce 21 3c 29 31 77 be 5b 28 76 be
       -0.33223137 0.009875835 -0.24139847 -0.24038832
000230 42 b1 83 3e cb 24 b0 3d f3 d8 70 3e ce f5 aa 3e
       0.25721174 0.08600768 0.2352026 0.3339066
000240 43 0b 84 be 79 92 7c 3e b0 a2 28 be 66 48 1e 3e
       -0.25789842 0.2466525 -0.1646831 0.15457305
000250 8d dd 99 be 31 d2 98 3e 98 71 13 3e 53 11 be 3d
       -0.30051842 0.29847863 0.14398801 0.09280648
000260 73 f8 9b bd 5c 6a b6 bd 04 03 64 bd 75 c4 88 3e
       -0.07615747 -0.08907005 -0.05566694 0.26712385
000270 fe b4 14 be 85 5c 9a be 48 2c d2 3b 8b e2 7f bd
       -0.14522168 -0.30148712 0.00641397 -0.062471908
000280 b9 d0 a4 be ca a4 ac bd df 34 61 be 1c 3d d5 be
       -0.32190493 -0.084298685 -0.21992825 -0.41648185
000290 f1 09 39 3e 80 e7 81 3e 07 95 92 be 13 d8 5a 3e
       0.18070199 0.25371933 -0.28629324 0.21371488
0002a0 57 08 a3 bd 09 7d b2 3e 8c 27 28 3e b0 26 39 be
       -0.07960575 0.3486102 0.16421336 -0.18081164
0002b0 e0 35 e1 ba 37 aa 1a 3e 88 29 b4 3e f7 ec 52 3e
       -0.0017182194 0.15103994 0.35187936 0.20598207
0002c0 86 79 e2 3d 64 f1 bb 3e a4 9f b5 be 12 76 35 be
       0.11058335 0.36707604 -0.3547336 -0.17720821
0002d0 dd 56 0e 3d 3e 5c 4e 3d 34 48 8f 3e 6e 7a 9f 3e
       0.034750808 0.050380938 0.27984774 0.31148094
0002e0 af 38 31 3e c6 79 23 3e 47 53 ab bd 89 b2 0e be
       0.1730678 0.15964422 -0.08365493 -0.13935293
0002f0 fb 22 9e 3e d3 e4 ef bd 4f 50 2e 3d ed df b8 be
       0.30886063 -0.11713567 0.042557057 -0.36108342

gru.bias_ih_l0 f4 [24]
000000 4f dc 25 bc d6 d1 bf 3e 09 df 3f 3e 0c 41 6f be
       -0.010123326 0.3746478 0.18737425 -0.23364657
000010 83 b0 7b be 2e 8e c8 3e e5 42 b2 3e 23 f7 8a be
       -0.24579053 0.39170974 0.3481666 -0.27141675
000020 07 c8 1d be 54 99 74 3e 98 1d 54 3e ee c8 b5 3e
       -0.15408336 0.23886615 0.20714414 0.3550486
000030 e6 58 39 be e5 7e 85 3d 47 22 a2 3d 7a f3 60 be
       -0.18100318 0.06518344 0.07916694 -0.21967879
000040 14 68 19 bd 42 b6 bc bc 75 59 69 be 4c 9c ee bc
       -0.037452772 -0.023036126 -0.22788031 -0.029127263
000050 ac 4e 94 be e4 81 92 bd 83 10 78 be 80 b3 b0 3e
       -0.28966272 -0.07153681 -0.24225049 0.34511948

gru.bias_hh_l0 f4 [24]
000000 29 75 d4 3d 26 be ba 3e b6 0d 82 bd c4 e2 56 3e
       0.10373909 0.36473197 -0.063502714 0.20984942
000010 50 f0 ba be 1e a2 85 be 71 70 cd 3e 36 c6 32 be
       -0.3651147 -0.26100248 0.40124848 -0.17458424
000020 ee 54 1c be ba 23 90 3c 73 33 f1 3c e9 4e 4a 3d
       -0.15266773 0.01759516 0.029443478 0.04939166
000030 32 e7 c0 3e bb b5 89 bd 89 37 89 be 96 09 1b bc
       0.37676388 -0.067241155 -0.26800182 -0.009462735
000040 0c 75 57 bd c6 22 9a 3e f9 02 1f be 4f 00 67 be
       -0.05260186 0.30104655 -0.15528478 -0.22558711
000050 dc ee 9d be ca 35 0f 3e f1 c4 b8 3e b1 c4 ad bd
       -0.30846298 0.13985363 0.36087754 -0.084847815

fc.weight f4 [10, 39]
000000 20 bc 90 bc d4 d6 12 3d 60 cd 9d bc 1c 07 8a 3d
       -0.01766783 0.035849407 -0.01926297 0.06739637
000010 ae c7 1a 3e 03 0a ad bd 00 6a 9b 3a 12 55 15 be
       0.15115234 -0.08449175 0.0011857152 -0.14583233
000020 10 f1 e5 3d 94 e1 22 be 40 fc a1 bb e8 9f d1 3d
       0.1122762 -0.15906364 -0.0049434006 0.10235578
000030 40 cb 2e 3d d0 44 72 bc c0 27 7c bb 09 1e 86 bd
       0.042674303 -0.014786914 -0.0038475841 -0.065486975
000040 50 bc d6 3d 18 fe 48 3d 5c aa 1a 3e 96 1b 12 3e
       0.104851365 0.049070448 0.1510405 0.14268336
000050 af a4 b1 bd 88 f5 8d 3c 2b cf b5 bd be 74 7d bd
       -0.08673989 0.017328992 -0.08877405 -0.061878912
000060 c4 8d ef bd 5e a7 a1 3d e0 53 b9 bc 8b eb ad bd
       -0.116969615 0.07893251 -0.022623003 -0.08492192
000070 6a 29 ad bd dc 5b 3d 3d 00 91 a8 3c 50 ad 1e 3d
       -0.08455165 0.046230182 0.020576954 0.038739502
000080 9c 83 c5 3d b3 74 c6 bd 20 66 fd 3c f1 76 dd bd
       0.09644243 -0.09690227 0.030932486 -0.10813702
000090 6a e1 19 3e ca ee e1 bd 50 46 12 be c6 8d f2 bd
       0.15027395 -0.110318735 -0.14284635 -0.118434474
0000a0 4a 48 79 bd f4 3c e9 3d 9c fd 63 bd 18 c5 cc 3d
       -0.060859956 0.11388579 -0.055661783 0.0999853
0000b0 22 22 b8 bd a8 c9 e2 3c b0 14 00 3e bf c5 9e bd
       -0.08990885 0.027684048 0.12507892 -0.07752561
0000c0 e0 6f b0 bd f8 95 2e 3d 00 c1 e4 3c 64 c3 99 bd
       -0.086150885 0.04262349 0.02792406 -0.07507971
0000d0 1a 26 b9 bd c2 25 5f bd 88 ef 92 bd bf 0b ac bd
       -0.090404704 -0.054479368 -0.07174593 -0.08400678
0000e0 c8 f9 f6 3d 26 b5 a9 3d 00 58 78 bc 08 bb 21 3d
       0.12059361 0.082865044 -0.0151577 0.039485008
0000f0 7a 3a 83 3d a8 d9 6a bd 4a a6 7d bd 50 e0 dd 3d
       0.06407638 -0.05733648 -0.061926164 0.108338
000100 3c bc 41 3d 48 bd 7d 3d fc 94 09 3e 90 83 8f bd
       0.047298655 0.06194809 0.1343574 -0.070075154
000110 20 70 be 3d 24 78 12 3e d8 1a 14 3e 64 40 bd 3d
       0.0929873 0.14303643 0.14463365 0.09240797
000120 3c 10 9c bd a0 0f b8 3d e0 5a ba 3d c8 30 6b bd
       -0.07620284 0.08987355 0.09099364 -0.05741957
000130 8c 38 09 bd 90 b9 d0 bc 12 45 06 3e 70 bd e7 bc
       -0.033501193 -0.025479108 0.13112286 -0.028288573
000140 54 41 b4 bd 2c dc 08 3d 62 e8 97 3d c8 20 e9 bd
       -0.08801523 0.033413097 0.074173704 -0.11383206
000150 de 4e b5 3d 82 f1 22 be 00 15 8b 3c 80 36 db ba
       0.08852933 -0.1591244 0.016977787 -0.0016724616
000160 33 7d a0 bd 24 1c 3b 3d 90 e8 ba 3c c8 6b 51 bd
       -0.0783638 0.045681134 0.022815973 -0.05112818
000170 70 84 c2 3d a8 61 b9 3d d0 6d c8 3d c8 c8 c7 bd
       0.09497917 0.090518296 0.0978657 -0.09755093
000180 50 87 db bd 54 fe 4e 3d 43 ee 10 be 2c 9b 0c be
       -0.10719168 0.050535515 -0.1415339 -0.13731068
000190 9c 58 7d 3d 76 df 80 bd 44 42 eb 3d 70 a9 20 3e
       0.061852083 -0.06292622 0.114872485 0.15689635
0001a0 16 e7 15 3e e0 b2 b8 3c 04 35 8c 3d d4 a4 37 3d
       0.14638934 0.022546232 0.068460494 0.044834927
0001b0 a1 7e 08 be d1 2a 01 be 5e a6 1e 3e 4a 7c 20 be
       -0.13329555 -0.1261399 0.15493152 -0.15672413
0001c0 60 a4 f9 3d 2f e6 c7 bd 7c 7b 9f 3d 1a 02 52 bd
       0.12189555 -0.09760701 0.07787225 -0.051271535
0001d0 b0 38 17 3d d8 28 af bc 40 91 06 bc d2 a8 b3 3d
       0.036919296 -0.02138178 -0.008213341 0.08772434
0001e0 e8 aa 21 3d a1 4a a6 bd d0 ab 9a bc 0f 00 85 bd
       0.03946963 -0.08119703 -0.018880755 -0.06494152
0001f0 89 87 c2 bd 50 ba 0c be 98 f9 10 3e 8e 8f ee bd
       -0.094985075 -0.13742948 0.14157712 -0.11648475
000200 26 f6 0b 3e 60 fd 9b 3d 76 31 18 be 78 d4 c2 3d
       0.13668117 0.07616687 -0.14862618 0.095131814
000210 7a f9 16 be de 31 02 be 6a b8 4f bd 20 92 89 3d
       -0.14743605 -0.12714335 -0.05071298 0.06717324
000220 72 40 0d be 58 99 d7 3c 90 b3 99 3d 8d 92 0a be
       -0.13794115 0.026318237 0.07504952 -0.13532467
000230 74 58 76 3d 48 26 f8 3c 20 54 b8 bc 3e a9 95 3d
       0.06014295 0.030291691 -0.022501051 0.07307671
000240 40 98 91 3d b8 6c bd bd 50 59 43 3c 54 17 60 bd
       0.071091175 -0.09249252 0.011923149 -0.054709747
000250 50 0b d1 3d 25 89 20 be a0 df f9 3d 0e 6f 18 be
       0.10207236 -0.15677316 0.12200856 -0.14886114
000260 70 b8 e0 bc 30 53 72 bd 88 c1 23 3e 8e cb 07 be
       -0.027431697 -0.059161365 0.15991795 -0.13261244
000270 c2 41 12 be 09 2d 89 bd a8 3d 8a bc 87 70 02 be
       -0.14282897 -0.06698043 -0.016875103 -0.12738238
000280 69 43 1c be b1 04 01 be 00 c8 d2 ba 22 3c f7 bd
       -0.1526009 -0.12599446 -0.0016081333 -0.12072016
000290 bc b1 cb 3d c0 a7 b9 3d ae 47 13 3e 88 8b 19 3d
       0.099460095 0.09065199 0.14382812 0.037486583
0002a0 30 fc 5b bd f6 70 04 3e 58 ae 60 3d 50 65 1b 3d
       -0.0537073 0.12933716 0.054853767 0.037938416
0002b0 0e c7 ca bd 60 10 52 3d 3c 82 2f 3d 48 eb 48 bd
       -0.09901248 0.051285148 0.04284881 -0.049052507
0002c0 64 1c 07 3e fb 70 23 be 9c 3b 61 3d 10 c2 ad bc
       0.13194424 -0.15961067 0.05498849 -0.0212107
0002d0 4f 13 a1 bd 80 45 e5 3b e6 65 c9 bd 00 cd 54 bd
       -0.07865011 0.0069968104 -0.09833889 -0.051953316
0002e0 ca ac 22 be 00 bc c0 ba 7c 9a 02 3d d5 25 bd bd
       -0.15886226 -0.0014704466 0.03188561 -0.092357315
0002f0 5a 45 79 bd e8 76 13 3d f8 3b f4 bc 80 d6 9c bc
       -0.060857154 0.03600207 -0.029813752 -0.01914525
000300 85 e9 ff bd 30 c6 19 3e 50 61 f7 3d b0 5b ea 3d
       -0.12495712 0.15017009 0.12079108 0.11443269
000310 80 1d be ba 0c 01 cd 3d f8 df 26 3d d0 03 10 be
       -0.0014504641 0.10009965 0.040740937 -0.14063954
000320 40 a1 0c 3b e8 da db 3d 39 86 8f bd a0 8e 63 3d
       0.0021458417 0.107351124 -0.07008023 0.05555594
000330 ac e6 85 bd ba f2 92 3d d8 f6 a5 bc f0 c3 91 3c
       -0.06538138 0.07175203 -0.020259306 0.017793626
000340 d0 7c 4b 3d fc 10 1f bd a0 f6 d0 bb f0 0f 08 bc
       0.049679577 -0.038834557 -0.0063770562 -0.008304581
000350 c3 45 e1 bd 74 8b 6b 3d 7b 0f aa bd f2 f1 79 bd
       -0.10999634 0.05750604 -0.08303734 -0.061021753
000360 b8 db bf 3c a0 b2 10 3e 4e 53 ee bd 98 31 c4 bc
       0.0234202 0.1413064 -0.11636983 -0.02394943
000370 96 ac 09 3e e0 41 f5 3b d0 9f de 3d de 0d c9 bd
       0.13444743 0.0074846596 0.108703256 -0.09817098
000380 66 4d ca bd 42 16 25 bd 0c 20 fa 3d 40 7d f4 3b
       -0.09878044 -0.04030443 0.12213144 0.00746122
000390 f9 08 ba bd 50 89 49 3d b2 d5 e3 bd fa d9 18 3e
       -0.09083743 0.049203217 -0.111247435 0.14926901
0003a0 f9 5d a4 bd 40 de 7f 3b 6a c1 01 3e ae 3a 11 3e
       -0.08025736 0.0039042383 0.12671438 0.14182541
0003b0 d2 fb ad 3d 9a 09 ac 3d 15 35 81 bd d0 98 f7 3c
       0.084952965 0.08400269 -0.06308953 0.030224234
0003c0 8e 1e 26 bd 80 09 90 3c b9 16 9b bd d2 2c 42 bd
       -0.040556483 0.017582655 -0.075726934 -0.047406025
0003d0 d0 12 48 bc 00 13 3d 3c e0 5f cf bd 6a 1e 90 bd
       -0.0122115165 0.0115401745 -0.101257086 -0.07037051
0003e0 78 59 b2 3c 58 6b d5 bd 1c 87 b7 3d 3f e8 c7 bd
       0.021771178 -0.10420865 0.08961317 -0.09761094
0003f0 00 9b 06 3b 3d 91 86 bd ec 41 33 bd 40 f1 85 bc
       0.0020539165 -0.06570671 -0.04376404 -0.016350389

fc.bias f4 [10]
000000 29 eb 10 be 80 c9 0d 3e 48 0d 69 3d 40 35 61 3b
       -0.14152206 0.13846397 0.05689743 0.0034364015
000010 a4 37 00 be 80 8a b8 ba c8 d7 1e be a6 0e 18 be
       -0.12521225 -0.0014079362 -0.15512002 -0.14849338
000020 cc 66 1c 3d fc 5b 9c bd
       0.038183972 -0.07634732

fc2.weight f4 [1, 10]
000000 9b d5 8e be 7a 12 47 3e 0a f8 56 be f6 e3 2e be
       -0.27897343 0.19440642 -0.20993057 -0.17079148
000010 4a f3 e9 bd a1 2e a0 3e 90 fa 35 3e 33 35 40 be
       -0.11423357 0.31285575 0.17771363 -0.18770294
000020 bd b8 33 be 32 61 89 bd
       -0.17550941 -0.06707992

logistic.weight f4 [1, 39]
000000 75 dd 56 3d 47 10 a1 bd 24 a2 d2 bd 67 57 f4 3d
       0.05245729 -0.07864433 -0.10284832 0.11930733
000010 ca 38 c0 bc f7 ae a5 bd 55 1a b6 bd 3f fb 50 3d
       -0.02346458 -0.080900125 -0.08891741 0.051020857
000020 e7 85 18 3c 45 6b 5c 3c 13 65 28 3e 2c 4b 04 ba
       0.009309269 0.013453309 0.16444807 -0.0005046602
000030 25 74 8a 3c 43 c5 ed bd 35 e3 16 bd 8e 84 5c 3b
       0.016901085 -0.1160989 -0.036837775 0.0033648345
000040 1b bc d9 bd 47 84 1e 3d ea 82 73 bc 48 e6 16 be
       -0.106315814 0.03870037 -0.014862755 -0.14736283
000050 3f 5f ce bc 5f e8 e7 bd 44 3b 33 be da 69 00 be
       -0.025191901 -0.11323618 -0.17503077 -0.12540379
000060 1e a2 69 3b 92 1e 95 3c 15 c5 a6 bd fd 33 7c 3c
       0.0035649608 0.018203054 -0.08143059 0.015393254
000070 85 1d ac bc 5d 6d 7a bd 16 d1 9a bd 2a 8c e2 bd
       -0.02101017 -0.061139453 -0.07559411 -0.110618904
000080 80 78 1a be 58 14 e0 bc fe c7 c8 bd 80 1d 48 bb
       -0.1508503 -0.02735345 -0.098037705 -0.0030535161
000090 d8 73 df bc 88 aa 9d 3c fb 2a 47 3e
       -0.027276918 0.019246355 0.1944999
