logdir/vanilla_rnn/final_model.pt (torch_old, 2914 bytes, 5 tensors)

gru.weight_ih_l0 f4 [24, 8]
0.19890903 0.21728797 -0.024317825 0.05953537 -0.26032656 -0.27401215 0.16738078 0.1074585
-0.053342633 0.12528029 -0.043104418 0.07531123 0.29928708 -0.18711254 -0.039042607 0.32197294
-0.12004581 -0.11819783 -0.034459382 0.09365996 -0.031029927 -0.36648798 -0.2120113 -0.12899393
0.054083344 0.01552249 0.29976496 -0.1425811 0.29669872 -0.15274493 0.21159233 0.112315446
-0.34571353 0.2987799 -0.055245787 -0.14500417 0.05109552 0.32055742 0.053558465 -0.26248306
-0.15381491 -0.087809145 0.2847729 -0.31887722 0.31078768 -0.03255089 0.20883481 -0.21088752
-0.09649803 0.047047146 0.14006534 0.08233801 0.20694108 -0.28735578 0.011360809 -0.17874575
0.35168785 0.053589493 0.03274266 -0.33849818 -0.2070526 -0.02149352 -0.2801085 -0.17626925
-0.34040645 -0.17586724 0.06584814 -0.41864613 0.03834209 0.07300467 0.059315506 -0.22726452
0.07087041 0.34242135 0.09043111 0.35187593 0.037761156 0.13461614 0.10659749 0.20193228
0.20307799 -0.1891776 -0.10807714 0.091528215 0.00316393 0.34451738 -0.13786022 -0.33687264
0.2128951 0.06492588 -0.08676916 -0.13566792 -0.13665882 0.1250864 -0.2494299 0.023955733
0.33177033 -0.116786785 0.09401589 0.03615718 0.07837134 -0.18234253 -0.101308346 -0.0987367
0.11439935 0.012123295 0.25975034 -0.06580465 0.26385927 0.17962219 -0.043716677 -0.20160173
0.01753664 0.14230973 0.34267527 0.03689187 0.0029275678 -0.21894774 -0.22834662 -0.32901797
-0.05097196 -0.080260724 -0.31698635 -0.09638191 0.1543851 0.041112863 -0.17064379 0.3208162
0.22857197 0.05355412 -0.014036727 0.19693114 -0.051706877 -0.1607949 0.29239345 0.009865791
-0.13155608 -0.15935509 0.114996895 -0.34017584 0.08461161 -0.2276662 0.2863388 -0.14544958
0.11982242 -0.08876585 -0.4184148 0.32933688 0.15153407 0.300709 -0.34865093 0.1645712
-0.44690278 0.14627598 0.088387 0.047016867 0.2543325 -0.12046566 0.13753667 0.13603029
0.19982879 -0.29841813 -0.100682355 -0.048477937 0.33209938 -0.3958603 0.3058462 -0.15952675
-0.3441427 0.31665757 0.02180906 -0.070601396 -0.20864625 0.25465605 -0.06242808 -0.19349685
0.023070931 0.15343453 -0.024039501 -0.40808874 -0.028277667 -0.16068274 -0.19119038 -0.2078479
-0.05685905 -0.08285625 0.1733645 -0.22280096 0.042268705 0.2689278 0.1544893 0.29563978
00000000: cfae 4b3e bd80 5e3e 2d36 c7bc 5cdb 733d
00000010: 8649 85be 524b 8cbe de65 2b3e 3413 dc3d
00000020: ce7d 5abd 7a49 003e 428e 30bd c63c 9a3d
00000030: 283c 993e 6e9a 3fbe 24eb 1fbd a3d9 a43e
00000040: 94da f5bd b411 f2bd 4825 0dbd cbd0 bf3d
00000050: 7932 febc 50a4 bbbe 7d19 59be fc16 04be
00000060: 7f86 5d3d 0b52 7e3c cb7a 993e c800 12be
00000070: e5e8 973e 2b69 1cbe a9ab 583e a405 e63d
00000080: 5d01 b1be aef9 983e 6849 62bd f97b 14be
00000090: 8949 513d 1a20 a43e 1f60 5b3d 2e64 86be
000000a0: a881 1dbe 48d5 b3bd c1cd 913e e043 a3be
000000b0: 901f 9f3e 1554 05bd cbd8 553e e6f2 57be
000000c0: c2a0 c5bd 82b4 403d 4a6d 0f3e d5a0 a83d
000000d0: 5de8 533e 4c20 93be b022 3a3c 2009 37be
000000e0: 6e10 b43e a880 5b3d 2b1d 063d a24f adbe
000000f0: 9905 54be 2e13 b0bc 626a 8fbe ed7f 34be
00000100: c149 aebe 8b16 34be 64db 863d c958 d6be
00000110: 980c 1d3d 7983 953d d1f4 723d 08b8 68be
00000120: 8124 913d da51 af3e f233 b93d 1529 b43e
00000130: 71ab 1a3d d0d8 093e c94f da3d 56c7 4e3e
00000140: adf3 4f3e c6b7 41be 8c57 ddbd 2573 bb3d
00000150: f059 4f3b 9564 b03e 3b2b 0dbe 927a acbe
00000160: 2c01 5a3e dcf7 843d 08b4 b1bd 88ec 0abe
00000170: 4af0 0bbe a616 003e 8d6a 7fbe d03e c43c
00000180: cddd a93e e92d efbd 678b c03d 8d19 143d
00000190: 2781 a03d 00b8 3abe c07a cfbd 7836 cabd
000001a0: 354a ea3d c9a0 463c fffd 843e 97c4 86bd
000001b0: 9018 873e e1ee 373e 4210 33bd af70 4ebe
000001c0: 00a9 8f3c a4b9 113e 2273 af3e ee1b 173d
000001d0: 70dc 3f3b d633 60be b2d3 69be 0b75 a8be
000001e0: f9c7 50bd bc5f a4bd 094c a2be e163 c5bd
000001f0: 2117 1e3e f665 283d 3fbd 2ebe 0542 a43e
00000200: c50e 6a3e 915b 5b3d 4dfa 65bc 51a8 493e
00000210: 97ca 53bd 6ba7 24be 98b4 953e 20a4 213c
00000220: a3b6 06be fb2d 23be 7e83 eb3d 872b aebe
00000230: da48 ad3d 5421 69be 009b 923e bcf0 14be
00000240: 7565 f53d dfca b5bd 773a d6be d89e a83e
00000250: bf2b 1b3e 88f6 993e 6082 b2be 5a85 283e
00000260: 71d0 e4be 5fc9 153e 3e04 b53d c294 403d
00000270: df37 823e b3b6 f6bd 6ad6 0c3e 864b 0b3e
00000280: eb9f 4c3e 43ca 98be 8d32 cebd cd90 46bd
00000290: ee08 aa3e 34ae cabe e097 9c3e fb5a 23be
000002a0: 7933 b0be f120 a23e eaa8 b23c 7797 90bd
000002b0: 5da7 55be 4762 823e 96b4 7fbd 0a24 46be
000002c0: 40ff bc3c f11d 1d3e 7dee c4bc 02f1 d0be
000002d0: 91a6 e7bc 048a 24be 69c7 43be 14d6 54be
000002e0: 09e5 68bd 8ab0 a9bd 7786 313e ef25 64be
000002f0: f321 2d3d e8b0 893e 7132 1e3e 195e 973e

gru.weight_hh_l0 f4 [24, 8]
-0.19835426 0.0044449903 -0.05436103 0.42332205 -0.13527252 -0.25893652 -0.09537529 0.15299933
-0.123927265 0.22848287 0.06737224 -0.30902869 0.23684998 0.114692174 0.1032022 -0.16641074
-0.18230855 0.3093479 -0.20342605 -0.1268323 0.19283172 0.2899161 -0.15055121 0.19381037
-0.05349235 -0.096199825 -0.21005636 -0.025248492 -0.14551726 0.16472933 -0.07724175 -0.002906901
0.07477963 0.22225083 0.031515907 -0.27340886 -0.09639625 -0.2663777 0.2173869 -0.2689948
0.27191266 0.35740048 -0.16592431 0.21565753 -0.11904789 0.09830193 -0.23830041 0.23772869
-0.17036296 0.28837514 -0.10655712 0.32253408 0.1717289 -0.14012611 0.026292838 0.12827113
-0.2715101 -0.14871886 -0.15584567 -0.31387168 0.0026661423 -0.17451954 0.30158633 0.268072
0.23547632 -0.263103 -0.15345809 -0.17563711 -0.36936802 0.14556502 -0.10891137 -0.084306754
-0.094898395 0.104675904 -0.2650615 0.29600757 0.15151544 -0.07253266 0.21174376 0.15575168
-0.3084524 0.17034988 0.104398765 0.33663175 -0.40049875 -0.122756064 -0.08763266 -0.12794267
-0.0747241 0.052761827 -0.20317769 0.37330258 -0.19781253 0.14187981 -0.302761 0.003263365
0.098611645 -0.26843295 0.42992282 -0.24995619 0.1116471 -0.2882736 -0.037528817 0.28642407
0.09544395 -0.02667028 0.3476935 0.23016334 0.13563249 0.121582024 0.36223322 -0.19919737
-0.29907957 -0.12388282 0.13461934 -0.15821029 0.22140922 -0.24107708 0.07122431 -0.04179109
-0.26554552 0.027751835 0.023212796 0.21301137 -0.2827327 -0.022710813 -0.11687423 0.20338193
-0.26003876 0.4010002 -0.11657135 0.23945108 0.020998387 -0.16367371 0.11125875 0.21168087
0.01959751 -0.19706932 -0.18797639 -0.3021798 -0.14569187 0.26590484 0.11008952 -0.27772418
-0.042210616 -0.08097461 0.0011323642 -0.3635426 -0.35149217 -0.15839908 0.17540632 0.31175146
0.09781148 -0.07420437 -0.45581907 0.008524934 -0.07348045 0.04075713 0.2001022 -0.09996026
-0.36645424 0.080207504 -0.3772412 -0.18201232 -0.026154442 -0.08681796 -0.017030943 0.22668248
0.33132476 -0.23815824 -0.035215758 -0.07315164 0.32966214 -0.06856641 0.26488176 0.108338684
0.21236403 -0.18529081 -0.30229065 0.035439022 -0.3413638 0.25464523 -0.23926204 0.08156229
0.22114524 0.075458415 -0.018653993 0.1414872 0.35027623 -0.061331373 -0.09752147 0.14133312
00000000: 611d 4bbe 48a7 913b aca9 5ebd abbd d83e
00000010: e184 0abe 5493 84be 1f54 c3bd dbab 1c3e
00000020: 94cd fdbd 6af7 693e 75fa 893d 0239 9ebe
00000030: cd88 723e bbe3 ea3d ad5b d33d 9467 2abe
00000040: 18af 3abe d962 9e3e eb4e 50be 54e0 01be
00000050: ae75 453e e26f 943e 192a 1abe 3a76 463e
00000060: cb1a 5bbd 6a04 c5bd 0419 57be edd5 cebc
00000070: 7a02 15be ceae 283e ec30 9ebd b581 3ebb
00000080: 1026 993d b995 633e d316 013d 3ffc 8bbe
00000090: 666b c5bd a862 88be ac9a 5e3e b0b9 89be
000000a0: 2338 8b3e 32fd b63e 10e8 29be 54d5 5c3e
000000b0: 61cf f3bd 8652 c93d 0605 74be 266f 733e
000000c0: a173 2ebe e8a5 933e 9f3a dabd 3023 a53e
000000d0: b3d9 2f3e 387d 0fbe 1464 d73c 8259 033e
000000e0: 5f03 8bbe c249 18be 0296 1fbe cab3 a0be
000000f0: 72ba 2e3b 40b5 32be 8669 9a3e bc40 893e
00000100: b420 713e 70b5 86be 1e24 1dbe 37da 33be
00000110: ce1d bdbe ff0e 153e ed0c dfbd 05a9 acbd
00000120: 175a c2bd 5260 d63d 24b6 87be 4e8e 973e
00000130: dd26 1b3e 018c 94bd 5bd3 583e 5e7d 1f3e
00000140: 79ed 9dbe 3370 2e3e 05cf d53d ff5a ac3e
00000150: 2c0e cdbe 8867 fbbd c178 b3bd 6703 03be
00000160: f308 99bd c91c 583d d00d 50be 8421 bf3e
00000170: 5e8f 4abe f148 113e 7d03 9bbe 2ede 553b
00000180: e7f4 c93d 0b70 89be d81e dc3e 84f4 7fbe
00000190: 3ca7 e43d 9998 93be d1b7 19bd 2da6 923e
000001a0: 1e78 c33d a27b dabc e204 b23e f0af 6b3e
000001b0: 3ee3 0a3e ffff f83d a276 b93e 65fa 4bbe
000001c0: f520 99be 47b6 fdbd a7d9 093e e101 22be
000001d0: 19b9 623e e9dc 76be 0dde 913d 222d 2bbd
000001e0: 95f5 87be d157 e33c c328 be3c a71f 5a3e
000001f0: 57c2 90be 070c babc c25b efbd 5a43 503e
00000200: cd23 85be e64f cd3e f6bc eebd aa32 753e
00000210: cf04 ac3c 159a 27be a1db e33d dfc2 583e
00000220: f58a a03c 8acc 49be e27c 40be 50b7 9abe
00000230: 4030 15be ae24 883e 9d76 e13d dd31 8ebe
00000240: 0ae5 2cbd 04d6 a5bd d66b 943a 4122 babe
00000250: c8f6 b3be 5e33 22be b79d 333e e39d 9f3e
00000260: 6351 c83d 76f8 97bd 1e61 e9be 2aac 0b3c
00000270: eb7c 96bd f3f0 263d 97e7 4c3e f7b7 ccbd
00000280: e49f bbbe d543 a43d c225 c1be 7061 3abe
00000290: d741 d6bc 9dcd b1bd 7a84 8bbc 741f 683e
000002a0: 66a3 a93e c1df 73be 663e 10bd 87d0 95bd
000002b0: 7ac9 a83e 8c6c 8cbd 959e 873e ace0 dd3d
000002c0: f575 593e e0bc 3dbe d7c5 9abe 8228 113d
000002d0: 3cc7 aebe dc60 823e 1c01 75be 210a a73d
000002e0: e673 623e f189 9a3d 42d0 98bc 05e2 103e
000002f0: 6857 b33e 9b36 7bbd 56b9 c7bd a1b9 103e

gru.bias_ih_l0 f4 [24]
-0.23346776 0.15757775 -0.09058262 0.37764448 0.2709742 0.16065171 0.050132062 0.26735273
-0.091986306 -0.09111275 -0.23298615 0.31166974 0.25024882 0.014751902 0.07247517 0.3034078
0.13345762 -0.03436984 0.3713037 0.17966668 -0.37294415 -0.14870626 -0.24178253 0.1599995
00000000: 2c12 6fbe 105c 213e 6183 b9bd 9e5a c13e
00000010: 21bd 8a3e e281 243e 4757 4d3d 75e2 883e
00000020: 5163 bcbd 5299 babd ec93 6ebe 2d93 9f3e
00000030: 9d20 803e f6b1 713c dd6d 943d 4458 9b3e
00000040: 1da9 083e 64c7 0cbd 851b be3e 8bfa 373e
00000050: 89f2 bebe 7446 18be d795 77be e9d6 233e

gru.bias_hh_l0 f4 [24]
0.043158125 -0.24252771 0.027897835 0.38072413 -0.13099304 0.067463264 -0.2879955 -0.2950908
-0.08915394 0.2855387 0.28059375 0.12791532 0.030439481 0.30201992 0.19414018 0.33283103
-0.0030046985 -0.31823787 -0.015785107 -0.06502382 0.034286156 0.0832136 0.21165816 -0.08057819
00000000: 93c6 303d 2f59 78be 008a e43c 46ee c23e
00000010: 0a23 06be 2e2a 8a3d 2574 93be 2416 97be
00000020: 5796 b6bd 2132 923e fca9 8f3e 3cfc 023e
00000030: 385c f93c 5ba2 9a3e afcc 463e d468 aa3e
00000040: 7aea 44bb 13f0 a2be c54f 81bc 352b 85bd
00000050: a46f 0c3d e46b aa3d ebbc 583e 2e06 a5bd

fc.weight f4 [1, 39]
0.084871866 0.103673644 -0.05243183 0.070399486 0.054367706 0.17550611 0.13650048 0.07610688
0.007980709 0.025665864 0.1439375 -0.0008270477 0.015333761 -0.080366775 -0.0027422146 0.14828569
-0.13501276 0.07231913 0.05954947 -0.12818705 0.027017476 -0.09976844 -0.33584684 -0.0275572
-0.010773753 0.012127908 0.06487358 0.048274208 -0.018343018 -0.06607715 -0.0039217523 -0.0020223707
0.052039653 -0.08862756 0.03387259 0.041656733 0.13631096 0.0026807934 0.16692327
00000000: 4dd1 ad3d d952 d43d c2c2 56bd 9b2d 903d
00000010: acb0 5e3d e0b7 333e c8c6 0b3e eddd 9b3d
00000020: 85c1 023c 3841 d23c 5a64 133e 3bce 58ba
00000030: 753a 7b3c 5697 a4bd bab6 33bb 34d8 173e
00000040: c940 0abe 0d1c 943d 25ea 733d 7743 03be
00000050: c153 dd3c 6553 ccbd 1ef4 abbe a3bf e1bc
00000060: 6584 30bc 22b4 463c 71dc 843d 2dbb 453d
00000070: 1944 96bc 7553 87bd 0b82 80bb c089 04bb
00000080: 8827 553d 5e82 b5bd fcbd 0a3d 40a0 2a3d
00000090: 1a95 0b3e 40b0 2f3b efed 2a3e
